…
To enable them in other operations, rebuild TensorFlow with the appropriate compiler flags.
2025-07-10 06:11:00.473240: I tensorflow/core/common_runtime/gpu/gpu_device.cc:1616] Created device /job:localhost/replica:0/task:0/device:GPU:0 with 6073 MB memory:  -> device: 0, name: NVIDIA GeForce RTX 2070 SUPER, pci bus id: 0000:01:00.0, compute capability: 7.5
Model: "sequential"
_________________________________________________________________
 Layer (type)                Output Shape              Param #   
=================================================================
 resnet50 (Functional)       (None, 8, 8, 2048)        23587712

 global_average_pooling2d (G  (None, 2048)             0
 lobalAveragePooling2D)

 dense (Dense)               (None, 128)               262272

 dropout (Dropout)           (None, 128)               0

 dense_1 (Dense)             (None, 1)                 129

=================================================================
Total params: 23,850,113
Trainable params: 23,796,993
Non-trainable params: 53,120
_________________________________________________________________
Epoch 1/25
2025-07-10 06:11:10.270738: I tensorflow/stream_executor/cuda/cuda_dnn.cc:384] Loaded cuDNN version 8600
2846/2846 [==============================] - ETA: 0s - loss: 0.1474 - accuracy: 0.9581      
…
