(.venv) C:\Users\1\Documents\GitHub\AI-Image-Detector>python Scripts/Trainer/DeepfakePipelineTrainer.py
✅ YOLOv8-Modell erfolgreich geladen.
✅ Gefundene GPU(s): [PhysicalDevice(name='/physical_device:GPU:0', device_type='GPU')]
Model: "sequential"
_________________________________________________________________
 Layer (type)                Output Shape              Param #   
=================================================================
 resnet50 (Functional)       (None, 8, 8, 2048)        23587712  

 global_average_pooling2d (G  (None, 2048)             0
 lobalAveragePooling2D)

 dense (Dense)               (None, 128)               262272    

 dropout (Dropout)           (None, 128)               0

 dense_1 (Dense)             (None, 1)                 129

=================================================================
Total params: 23,850,113
Trainable params: 23,796,993
Non-trainable params: 53,120
_________________________________________________________________

🚀 Starte Training mit ResNet50_YOLO_Pipeline...
Epoch 1/25
2846/2846 [==============================] - ETA: 0s - loss: 0.4357 - accuracy: 0.9375      
Epoch 1: val_accuracy improved from -inf to 0.55764, saving model to C:\Users\1\Documents\GitHub\AI-Image-Detector\Models\ResNet50_YOLO_Pipeline_20250713-230159.h5
…
